test/test_load_model/model.safetensors (safetensors, 496 bytes, 6 tensors)

layers.0.bias f4 [2]
0	0x3a183469	0.00058061496
1	0xbe1d271b	-0.15346949

layers.0.weight f4 [2, 2]
0	0xbf1df59d	-0.617029
1	0x3ee33b22	0.44381052
2	0xbdd2cd49	-0.10293061
3	0xbf33f726	-0.70298994

layers.1.bias f4 [2]
0	0xbe2921df	-0.16516827
1	0xbe8d5847	-0.27606413

layers.1.weight f4 [2, 2]
0	0x3f23fbab	0.6405589
1	0xbf28ab77	-0.65886635
2	0x3f307343	0.68925875
3	0x3dc7703f	0.09738206

layers.2.bias f4 [2]
0	0xbee544d5	-0.44779077
1	0xbeec0317	-0.46096107

layers.2.weight f4 [2, 2]
0	0x3cffb688	0.031214967
1	0xbecedb7e	-0.40401834
2	0xbf30de25	-0.69088966
3	0xbe6d9849	-0.23202623
